nets/net.pkl (torch_old, 7558 bytes, 3 tensors)

weight f4 [10, 1]
0.0051591396 -0.035757065 -0.3124574 0.77222896 0.50843954 -1.1948249 0.18032168 1.2881851
-0.00027766824 -0.21650179
00000000: 000e a93b 0076 12bd 6bfa 9fbe ccb0 453f
00000010: 1829 023f 06f0 98bf 3fa6 383e 40e3 a43f
00000020: 0094 91b9 a5b2 5dbe

bias f4 [10]
-0.53896093 -0.38091922 -0.61198354 -0.9444107 -0.47663403 -0.28652078 -0.28352153 -0.3040254
-0.36216167 -0.6601796
00000000: 58f9 09bf d807 c3be f4aa 1cbf e6c4 71bf
00000010: 6009 f4be dab2 92be bc29 91be 38a9 9bbe
00000020: 416d b9be 8801 29bf

weight f4 [1, 10]
0.17449653 -0.2527218 -0.29911256 0.24256709 -0.019165423 0.93784714 -0.88614 0.87309897
-0.6141239 -0.8503404
00000000: 38af 323e c064 81be 4825 99be 8263 783e
00000010: ce00 9dbc c016 703f 12da 62bf 6a83 5f3f
00000020: 3937 1dbf e9af 59bf
